…
vocab_size=16428

Padded training shape: (5607, 120)
Training sequences data type: <class 'list'>
Padded Training sequences data type: <class 'numpy.ndarray'>

Padded validation shape: (1202, 120)
validation sequences data type: <class 'list'>
Padded validation sequences data type: <class 'numpy.ndarray'>

Padded test shape: (1202, 120)
test sequences data type: <class 'list'>
Padded test sequences data type: <class 'numpy.ndarray'>

>>>>> Starting Keras Hyperband tuning LSTM...
Model: "sequential"

 Layer (type)                     Output Shape                  Param # 

 embedding (Embedding)            (None, 120, 64)             1,051,392 

 spatial_dropout1d                (None, 120, 64)                     0 
 (SpatialDropout1D)                                                     

 bidirectional (Bidirectional)    (None, 120, 128)               66,048 

 bidirectional_1 (Bidirectional)  (None, 128)                    98,816 

 dense (Dense)                    (None, 2)                         258 

 Total params: 1,216,514 (4.64 MB)
 Trainable params: 1,216,514 (4.64 MB)
 Non-trainable params: 0 (0.00 B)
None
Search space summary
Default search space size: 2
drop_rate (Float)
{'default': 0.2, 'conditions': [], 'min_value': 0.2, 'max_value': 0.45, 'step': 0.2, 'sampling': 'linear'}
learning_rate (Choice)
{'default': 0.005, 'conditions': [], 'values': [0.005, 0.01], 'ordered': True}
None

Search: Running Trial #1
…
76/176[0m [32m[0m[37m[0m [1m0s[0m 347ms/step - accuracy: 0.9869 - loss: 0.0370[1m176/176[0m [32m[0m[37m[0m [1m63s[0m 359ms/step - accuracy: 0.9869 - loss: 0.0370 - val_accuracy: 0.8985 - val_loss: 0.3291
Epoch 4: early stopping
[2K[2KTrial 4 Complete [00h 04m 59s]
val_accuracy: 0.9059900045394897

Best val_accuracy So Far: 0.920133113861084
Total elapsed time: 00h 20m 52s
Model: "sequential"

 Layer (type)                     Output Shape                  Param # 

 embedding (Embedding)            (None, 120, 64)             1,051,392 

 spatial_dropout1d                (None, 120, 64)                     0 
 (SpatialDropout1D)                                                     

 bidirectional (Bidirectional)    (None, 120, 128)               66,048 

 bidirectional_1 (Bidirectional)  (None, 128)                    98,816 

 dense (Dense)                    (None, 2)                         258 

 Total params: 1,216,514 (4.64 MB)
 Trainable params: 1,216,514 (4.64 MB)
 Non-trainable params: 0 (0.00 B)
None
Model: "sequential"

 Layer (type)                     Output Shape                  Param # 

 embedding (Embedding)            (None, 120, 64)             1,051,392 

 spatial_dropout1d                (None, 120, 64)                     0 
 (SpatialDropout1D)                                                     

 bidirectional (Bidirectional)    (None, 120, 128)               66,048 

 bidirectional_1 (Bidirectional)  (None, 128)                    98,816 

 dense (Dense)                    (None, 2)                         258 

 Total params: 1,216,514 (4.64 MB)
 Trainable params: 1,216,514 (4.64 MB)
 Non-trainable params: 0 (0.00 B)
None
Results summary
Results in logss2/sentiment_lstm
Showing 10 best trials
Objective(name="val_accuracy", direction="max")

Trial 0001 summary
Hyperparameters:
drop_rate: 0.2
learning_rate: 0.01
tuner/epochs: 4
tuner/initial_epoch: 0
tuner/bracket: 1
tuner/round: 0
Score: 0.920133113861084
…
